trained_model.pth (torch, 883403 bytes, 7 tensors)

fc1.weight f4 [512, 108]
-0.04275348 0.073494636 0.03236793 -0.08960819 0.0129978005 0.04336856 -0.090604536 -0.013857284
-0.05215727 0.0690092 0.051318645 0.024428895 -0.037283 0.055223893 -0.0030351654 0.059341278
-0.055178758 -0.083215445 -0.013334353 0.05644256 0.05550333 -0.081810355 0.037769865 -0.0078383135
0.045685537 -0.080928646 -0.057798922 -0.026492827 -0.02627322 0.011023982 -0.0065787756 0.030083504
0.007967021 0.047440168 -0.07020407 0.014096154 0.061458237 -0.010292829 -0.028590776 0.03615014
-0.016074382 0.035294164 -0.04976245 0.08301458 -0.087569 0.05438219 0.01662025 0.087202735
0.02939966 -0.08173388 -0.05222234 0.015153493 0.017889932 0.029529026 -0.07097439 0.07600045
-0.071679376 -0.09163285 0.044572517 -0.026066478 0.09277769 -0.08185903 0.0156102935 -0.009658963
-0.077784404 -0.062015742 -0.0907269 -0.084449716 0.08824361 -0.04585239 -0.076410614 0.058274288
0.06283942 -0.027292551 0.06473141 0.06908019 0.010125925 0.017530287 0.050984807 0.09125955
-0.00435033 -0.017709835 -0.018380107 -0.021664206 -0.05910296 0.05178877 0.013740785 -0.02424334
0.07074388 -0.06369401 -0.07613469 -0.048564274 0.06580243 0.0045601954 0.00804629 0.01843772
-0.015184266 0.016093727 -0.032382023 -0.020985305 -0.082074024 0.082458794 -0.05650937 0.07933877
-0.07829581 -0.036321916 -0.035469748 -0.014494574 0.021143196 -0.089685224 0.02113338 -0.045829546
0.06962565 -0.09395859 -0.07115233 -0.051585454 -0.0058291657 -0.01813342 -0.08079513 0.04496638
0.08939689 0.031515718 0.034660283 -0.037868842 0.019692395 0.0066102915 -0.05132903 0.052828386
0.032501385 -0.0003290182 0.056824718 -0.08378434 0.03718998 0.08236042 0.027960785 0.002817966
0.08472996 -0.037819203 0.060319174 -0.086399436 0.046719063 0.034700003 0.06748176 0.008234164
-0.03439533 -0.083676875 -0.07731999 -0.020564903 -0.04229326 -0.05299373 -0.041875273 -0.0043912763
0.021682875 -0.0871315 -0.030486045 0.058437888 0.046592675 0.051643144 -0.08325508 -0.007005512
-0.014156386 -0.013234986 -0.009190245 -0.015639776 0.07124706 -0.0871803 0.008029429 0.075505
-0.091341175 -0.05791534 0.078738056 0.06664477 0.055244245 0.0067221234 -0.030281218 0.013178311
-0.03371827 0.026437387 -0.07478104 -0.017849825 -0.029903896 -0.0223779 -0.07718849 -0.024987167
0.052338842 -0.017909858 -0.0072722 -0.0831939 -0.08429224 0.043765742 0.09241855 -0.095835514
-0.008553618 0.020650018 0.030020745 -0.08975506 -0.07057486 -0.009519659 -0.04026143 0.024037933
0.094576776 0.062345903 -0.05389574 0.03378444 -0.030140616 0.059518386 0.034181617 -0.094142795
-0.05776413 -0.0642016 -0.035266723 0.09200169 0.035890903 0.08680269 -0.07797851 0.0750725
-0.06650859 0.058031913 -0.0052954582 -0.03425939 0.040785775 0.032122586 0.021561615 -0.008998284
-0.08728406 0.08588155 0.066852756 -0.094134875 0.033974867 -0.09548929 -0.084343925 0.09223504
0.06824024 0.09129267 0.012225991 -0.013423655 -0.045214728 0.051279962 0.060263477 -0.020826219
-0.035841927 0.09447575 -3.3070315e-05 -0.022675557 0.009026498 0.05678097 -0.085582554 -0.09191609
-6.231869e-06 0.013466895 0.08064597 -0.053198732 0.0049818037 -0.07955845 -0.08018242 0.07049078
00000000: 461e 2fbd 5b84 963d 3c94 043d 8084 b7bd
00000010: baf4 543c 3ba3 313d df8e b9bd a909 63bc
00000020: dda2 55bd b254 8d3d 8033 523d 1b1f c83c
00000030: 0fb6 18bd 7332 623d a0e9 46bb d70f 733d
00000040: 1f03 62bd dc6c aabd 5578 5abc 5030 673d
00000050: 7657 633d 308c a7bd 93b4 1a3d 456c 00bc
00000060: c220 3b3d ebbd a5bd 90be 6cbd 7c07 d9bc
00000070: f03a d7bc ef9d 343c c592 d7bb ae71 f63c
00000080: 1c88 023c 9f50 423d 27c7 8fbd 8ef3 663c
00000090: a2bb 7b3d 41a3 28bc 3437 eabc 2b12 143d
000000a0: 6cae 83bc 9d90 103d b6d3 4bbd 8c03 aa3d
000000b0: 6057 b3bd dcbf 5e3d 3127 883c 5997 b23d
000000c0: 8ed7 f03c 1864 a7bd 18e7 55bd 5b46 783c
000000d0: e88d 923c dbe6 f13c 055b 91bd 20a6 9b3d
000000e0: a3cc 92bd 01aa bbbd ac91 363d 5e89 d5bc
000000f0: 3b02 be3d b5a5 a7bd 51c2 7f3c a140 1ebc
00000100: 6e4d 9fbd 3804 7ebd 06cf b9bd f9f3 acbd
00000110: 11b9 b43d b7cf 3bbd 2b7d 9cbd 05b1 6e3d
00000120: f4b1 803d a194 dfbc e791 843d ea79 8d3d
00000130: 35e7 253c ad9b 8f3c 72d5 503d 49e6 ba3d
00000140: 378d 8ebb 3714 91bc e191 96bc 2279 b1bc
00000150: f215 72bd 7620 543d 0821 613c f899 c6bc
00000160: 2be2 903d 0172 82bd 81ec 9bbd 55eb 46bd
00000170: 6dc3 863d b16d 953b 96d4 033c b40a 973c
00000180: 6dc7 78bc fed6 833c 03a3 04bd 60e9 abbc
00000190: 6d16 a8bd 28e0 a83d 5f76 67bd 5d7c a23d
000001a0: 8e59 a0bd 4ac6 14bd ba48 11bd a67a 6dbc
000001b0: 7f34 ad3c e3ac b7bd e91f ad3c c3b7 3bbd
000001c0: e597 8e3d 5c6d c0bd 50b8 91bd 454b 53bd
000001d0: 9602 bfbb 8a8c 94bc eb77 a5bd ab2e 383d
000001e0: b715 b73d a016 013d f1f7 0d3d 5c1c 1bbd
000001f0: f251 a13c 259b d83b 643e 52bd 9462 583d
00000200: 2c20 053d 1380 acb9 09c1 683d 2097 abbd
00000210: 8554 183d 94ac a83d 040e e53c a0ad 383b
00000220: e786 ad3d 4fe8 1abd 3d11 773d 30f2 b0bd
00000230: 7d5c 3f3d 9721 0e3d e133 8a3d 96e8 063c
00000240: 1ee2 0cbd c85e abbd f159 9ebd ba77 a8bc
00000250: b33b 2dbd f40f 59bd 6885 2bbd b2e4 8fbb
00000260: 49a0 b13c 0072 b2bd dfbd f9bc 915c 6f3d
00000270: f6d7 3e3d c387 533d a481 aabd 7e8e e5bb
00000280: 30f0 67bc 8ed7 58bc ae92 16bc fd1e 80bc
00000290: fbe9 913d 968b b2bd de8d 033c 5ea2 9a3d
000002a0: 1511 bbbd a338 6dbd 6b41 a13d 0e7d 883d
000002b0: ca47 623d 4245 dc3b 5110 f8bc d8e9 573c
000002c0: 2b1c 0abd 3893 d83c cd26 99bd cc39 92bc
000002d0: 04f9 f4bc dc51 b7bc 0015 9ebd e3b1 ccbc
000002e0: 4161 563d b2b7 92bc a34b eebb 9061 aabd
000002f0: 69a1 acbd b543 333d f045 bd3d 6945 c4bd
00000300: 7924 0cbc 3a2a a93c 11ee f53c 80d1 b7bd
00000310: 8d89 90bd 58f8 1bbc 2be9 24bd 33eb c43c
00000320: 78b1 c13d 6b5e 7f3d c8c1 5cbd 8e61 0a3d
00000330: 74e9 f6bc 8dc9 733d 0602 0c3d f0cd c0bd
00000340: 159a 6cbd 217c 83bd d773 10bd 626b bc3d
00000350: 5702 133d 9cc5 b13d 32b3 9fbd 9cbf 993d
00000360: a835 88bd dfb2 6d3d 8685 adbb 9353 0cbd
00000370: fc0e 273d f992 033d fca1 b03c 8a6d 13bc
00000380: fcc1 b2bd abe2 af3d 19ea 883d c9c9 c0bd
00000390: 3b29 0b3d e48f c3bd 82bc acbd bae5 bc3d
000003a0: 8ac1 8b3d a7f7 ba3d 864f 483c e4ee 5bbc
000003b0: 1433 39bd f00a 523d d6d6 763d bf9b aabc
000003c0: fcce 12bd 817c c13d fbb4 0ab8 17c2 b9bc
000003d0: e0e3 133c 2a93 683d e845 afbd 813e bcbd
000003e0: 591b d1b6 40a4 5c3c b729 a53d eae6 59bd
000003f0: 663e a33b 8aef a2bd ae36 a4bd 785d 903d

fc1.bias f4 [512]
-0.08339679 -0.012374684 0.09125017 0.02275473 -0.082850024 -0.0020284432 -0.02463194 0.06392537
0.0068971063 -0.008146994 0.013553849 -0.07111379 0.08535749 0.07729655 0.06448815 0.02111244
-0.054693885 0.018508384 -0.0230603 0.004512162 0.076286346 0.04688616 0.07900352 0.09310407
0.0034257972 -0.061611984 0.06070728 -0.082179956 -0.024059584 -0.033904836 -0.09598559 0.073021814
0.025844267 -0.018272212 -0.06262889 -0.008738742 -0.06585248 -0.06268457 -0.09117549 0.023629498
0.016809141 -0.06634685 -0.011045066 -0.032882497 0.015196211 -0.034399893 0.041749757 0.018700484
0.020362193 0.059557706 0.01640098 0.066694394 -0.050282307 -0.007877332 -0.06866797 0.02291133
0.0109832855 -0.016438777 0.044450585 0.018581416 -0.042605944 0.07408433 -0.048018094 -0.0695324
0.093482405 -0.04023659 0.002825693 0.07456211 -0.005778095 -0.0007954879 0.06308331 0.091682486
-0.03788348 0.06382601 -0.029956024 0.0053053983 -0.04754165 0.07574397 0.028696641 -0.045030184
0.06360983 -0.091026984 -0.0519418 0.059566274 0.09255864 -0.08230644 0.08659489 0.04800044
-0.043559417 0.023859404 -0.019812165 0.041723788 0.044139758 -0.0018460448 -0.052275445 0.07330657
-0.031749606 -0.055728983 0.08724261 -0.04549242 0.0038408202 -0.09571244 0.041405 -0.065627515
0.0045553627 -0.07917452 0.017408758 -0.004786563 -0.046918306 -0.045750014 -0.09431499 -0.024613593
-0.0006845435 0.07579327 0.05317143 0.07908091 0.040215425 0.067379646 0.05450742 -0.059235655
-0.032237537 0.061908368 -0.025106816 -0.074069604 -0.07523656 0.061891545 -0.06316168 0.09135663
-0.06179962 -0.0024781267 -0.09425202 -0.07543781 0.000107579595 -0.04698481 0.00940558 0.07897123
-0.085809745 0.013361163 0.023341948 -0.04924232 -0.06933353 0.092235915 -0.015008687 0.024664856
0.058525603 0.015696451 -0.057915032 -0.0890329 0.0088670505 -0.07981244 -0.05776083 0.038390897
-0.082895905 -0.0799972 -0.034728397 0.057972673 0.04980949 -0.03101954 0.0021244793 0.08671994
0.084849685 0.07050128 0.05626298 0.042142913 -0.021857655 0.070776686 0.044710048 0.063807905
0.09155109 -0.0002504323 -0.019758286 -0.0031633175 -0.017943507 -0.015723884 -0.004416126 0.033606034
-0.012828088 -0.07636078 0.009118905 -0.06183337 0.012877251 0.086589836 0.059464525 -0.0003560855
-0.0822713 -0.008276679 -0.03291333 0.008391715 0.029801246 0.09354797 0.07409749 -0.005255142
0.023719938 -0.039347958 0.040521707 0.07851473 0.02323053 0.07793484 0.08159798 -0.011858348
-0.0060695587 0.003905969 -0.06599409 0.01149678 -0.006169888 -0.04366575 0.045309637 0.052718
-0.07136116 -0.09200492 -0.027872816 -0.044958144 -0.03966458 -0.07105847 -0.013701269 -0.045781508
-0.06848277 0.06496648 -0.07724223 0.030167356 0.081994556 -0.060639422 0.052838575 0.01584657
-0.031491417 0.007734903 0.009299059 0.0020931384 -0.053128075 0.0545883 -0.06716663 -0.047630377
-0.0042537907 -0.0661697 -0.014271382 0.08501083 0.044508345 -0.07439838 0.061822113 0.01744392
0.07005566 0.0597402 -0.025711508 0.05192201 0.06540095 0.02534875 0.058179874 0.028091565
0.06936228 0.0138918925 -0.03188607 -0.02344946 0.02528406 -0.094848014 0.05590635 0.05720132
00000000: f0cb aabd 30bf 4abc 5ee1 ba3d 2168 ba3c
00000010: 46ad a9bd a1ef 04bb ecc8 c9bc 4eeb 823d
00000020: 1f01 e23b f87a 05bc f710 5e3c 1ba4 91bd
00000030: e8cf ae3d a74d 9e3d 5d12 843d fff3 ac3c
00000040: b206 60bd e59e 973c f4e8 bcbc c2da 933b
00000050: 043c 9c3d b40b 403d 99cc a13d 59ad be3d
00000060: 5783 603b d95c 7cbd 32a8 783d f74d a8bd
00000070: 9b18 c5bc ccdf 0abd 1894 c4bd 768c 953d
00000080: 5bb7 d33c 9baf 95bc 9343 80bd f12c 0fbc
00000090: aadd 86bd c560 80bd 37ba babd a692 c13c
000000a0: 53b3 893c dbe0 87bd 5df6 34bc ccaf 06bd
000000b0: 87f9 783c e7e6 0cbd cb01 2b3d c231 993c
000000c0: 9dce a63c c8f2 733d 595b 863c 1297 883d
000000d0: d2f4 4dbd ed0f 01bc cba1 8cbd 8bb0 bb3c
000000e0: 3df3 333c 9daa 86bc d111 363d 0e38 983c
000000f0: 9283 2ebd 86b9 973d 9fae 44bd 0167 8ebd
00000100: b473 bf3d 1fcf 24bd 432f 393b 05b4 983d
00000110: 2d56 bdbb 4a88 50ba d331 813d 07c4 bb3d
00000120: b52b 1bbd 36b7 823d 5666 f5bc e8d8 ad3b
00000130: 08bb 42bd a81f 9b3d 3815 eb3c 9271 38bd
00000140: df45 823d 5b6c babd edc0 54bd c4fb 733d
00000150: 628f bd3d 4790 a8bd a958 b13d 1c9c 443d
00000160: 5c6b 32bd cc74 c33c 1f4d a2bc 90e6 2a3d
00000170: e4cb 343d fcf6 f1ba c71e 56bd c121 963d
00000180: e00b 02bd 1344 64bd 41ac b23d 4356 3abd
00000190: 45b6 7b3b e204 c4bd 4a98 293d b867 86bd
000001a0: 2745 953b 4026 a2bd d09c 8e3c 9ad8 9cbb
000001b0: 692d 40bd 5e64 3bbd 3828 c1bd 72a2 c9bc
000001c0: f072 33ba 8039 9b3d 49ca 593d 2cf5 a13d
000001d0: eeb8 243d 57fe 893d 2c43 5f3d 16a1 72bd
000001e0: 820b 04bd a193 7d3d cfac cdbc ceb1 97bd
000001f0: a015 9abd fd81 7d3d e95a 81bd 2f19 bb3d
00000200: 9921 7dbd 1168 22bb 3407 c1bd 237f 9abd
00000210: 5b9c e138 2573 40bd dd19 1a3c abbb a13d
00000220: 05bd afbd c8e8 5a3c 9d37 bf3c 51b2 49bd
00000230: bdfe 8dbd 2fe6 bc3d ffe6 75bc f40d ca3c
00000240: 8bb8 6f3d d895 803c 5038 6dbd e256 b6bd
00000250: 1b47 113c b474 a3bd 9f96 6cbd c63f 1d3d
00000260: 54c5 a9bd 92d5 a3bd 5d3f 0ebd c174 6d3d
00000270: 0905 4c3d b11c febc d93a 0b3b 399a b13d
00000280: acc5 ad3d fa62 903d 0374 663d 0c9e 2c3d
00000290: d30e b3bc 5ef3 903d e221 373d b8ad 823d
000002a0: 237f bb3d 744c 83b9 21dc a1bc a94f 4fbb
000002b0: 43fe 92bc 60cf 80bc 26b5 90bb 7ba6 093d
000002c0: e72c 52bc 0a63 9cbd 7667 153c fd44 7dbd
000002d0: 1bfb 523c 0356 b13d 1391 733d fdb0 bab9
000002e0: db7d a8bd e89a 07bc 21d0 06bd 677d 093c
000002f0: be21 f43c 1496 bf3d 6dc0 973d 5433 acbb
00000300: 5150 c23c 532b 21bd 17fa 253d 55cc a03d
00000310: f44d be3c 4d9c 9f3d d71c a73d 8449 42bc
00000320: 26e3 c6bb 49fb 7f3b e927 87bd fe5c 3c3c
00000330: c62c cabb dcda 32bd 9996 393d d4ee 573d
00000340: cd25 92bd 136d bcbd 8855 e4bc 0826 38bd
00000350: 5477 22bd 1a87 91bd 4a7b 60bc 6485 3bbd
00000360: b240 8cbd 250d 853d 2d31 9ebd 8821 f73c
00000370: c3ec a73d 0b61 78bd 436d 583d aad0 813c
00000380: 25fd 00bd 1275 fd3b 155b 183c 092d 093b
00000390: d39c 59bd fb97 5f3d a88e 89bd 1218 43bd
000003a0: 6263 8bbb fb83 87bd 84d2 69bc 281a ae3d
000003b0: 624e 363d 2e5e 98bd 2f39 7d3d 8de6 8e3c
000003c0: 5879 8f3d 24b2 743d f1a0 d2bc 2cac 543d
000003d0: eff0 853d 2fa8 cf3c 054e 6e3d 4820 e63c
000003e0: d00d 8e3d d29a 633c f89a 02bd 1519 c0bc
000003f0: 8420 cf3c ad3f c2bd 0ffe 643d ee4b 6a3d

fc2.weight f4 [256, 512]
0.0059023798 -0.027806183 -0.026140258 0.003615306 0.0037642773 -0.040747557 0.03754557 0.03931899
-0.015679745 8.357063e-06 0.027757313 -0.034546576 -0.00091033266 -0.0032881696 0.02774071 0.03349106
0.03750968 -0.037244037 -0.041828 0.014519053 0.015380366 0.023920758 0.026132332 -0.0020441515
-0.021565389 0.0065354696 0.03826631 0.037017804 -0.03668424 0.0044025616 0.017999277 0.022730121
0.014251561 -0.005684534 0.0066823284 0.040552717 -0.02084021 0.032286767 -0.030125087 -0.023565156
-0.030794997 -0.034623105 -0.0052640014 0.017011072 -0.026303494 -0.0077455896 -0.015957901 0.010279809
0.02641712 0.004576354 -0.03302898 -0.031990815 -0.0112734735 -0.033209935 0.014050903 0.0427623
-0.024330813 -0.04107874 -0.038005196 -0.00857474 0.035029598 0.017686505 0.017510224 -0.032967936
-0.023865893 -0.0034309237 -0.01518408 -0.032106563 0.024716334 -0.04383403 0.042133376 0.040601358
-0.02652691 -0.030400023 0.013441975 0.027158007 -0.015640672 0.003675729 -0.029397938 -0.007179296
0.029630207 -0.03269666 0.039252266 0.035505943 -0.005048569 0.022277247 -0.006996584 0.03144735
-0.024654716 -0.028878596 0.035295125 0.020581903 -0.014811556 0.04280129 -0.014137944 0.038627412
0.041185662 0.0013388492 0.036644083 -0.02528256 -0.032249127 0.01642306 0.017181693 0.040954273
-0.027148845 -0.007793672 0.023556085 0.015120512 0.039073355 -0.014636081 -0.024596713 0.039182793
-0.020312697 0.019006316 -0.00042183071 -0.018593542 0.041433346 0.0285297 -0.00818582 0.037277367
-0.041998535 0.033919338 9.884494e-05 -0.04376021 0.041961797 0.04323828 0.0048167384 -0.032310374
-0.016246753 -0.027508257 0.01966889 0.04156567 -0.00027773972 0.01746094 0.011781143 -0.036803853
0.038071364 0.033438448 0.007824645 0.017746914 0.018293597 -0.015400721 -0.006654628 0.0025822353
-0.03172685 0.025417734 -0.03420296 0.028271653 0.035020333 -0.03785643 0.0033968575 0.012010855
-0.011197018 -0.020697922 0.041415513 -0.03361016 -0.0042179674 -0.03877081 -0.02462181 0.036506522
-0.018257903 0.027022455 -0.029922098 -0.0041568796 -0.006040489 -0.021637063 -0.042432636 -0.0284903
0.0035307456 0.0026434162 0.038925994 0.042994868 -0.004904505 -0.040706147 0.031051653 -0.034591164
0.022731595 0.023865536 -0.0360602 0.020252379 -0.003319474 -0.004790138 0.04260763 -0.0006629856
0.013729734 0.035759147 -0.01554914 0.008203285 -0.010253135 -0.019348603 0.007948884 0.040797606
0.029958623 -0.022467628 0.039800514 -0.026609885 -0.008078503 0.041564308 -0.04256428 -0.015060807
0.0150834415 -0.028712148 0.021411557 -0.022550799 -0.015848575 -0.028467832 0.007876262 0.002768573
0.017570237 -0.011307663 -0.032049175 -0.042670753 -0.013917264 0.010380206 -0.03194215 0.016601378
-0.011964411 0.026845196 0.035110045 -0.022958511 -0.040100433 -0.025234137 0.04060249 -0.037300773
-0.017553361 0.017381946 0.007570756 -0.02581527 0.0028137392 -0.012652685 -0.028543686 0.004637657
-0.04122463 -0.033838324 0.031655166 0.007458488 -0.009280357 -0.009356257 0.03838931 -0.019342713
-0.0014647801 -0.029421456 -0.036191583 -0.008743676 -0.020280497 0.00921566 0.014183559 -0.017936112
-0.0354288 0.008524707 0.0011420164 -0.03161411 0.006255946 0.038468566 0.029660266 -0.038149238
00000000: c068 c13b cbc9 e3bc 1824 d6bc c5ee 6c3b
00000010: 18b2 763b e9e6 26bd 62c9 193d f30c 213d
00000020: cf72 80bc 5035 0c37 4e63 e33c b680 0dbd
00000030: 64a3 6eba 557e 57bb 7c40 e33c ec2d 093d
00000040: c0a3 193d 348d 18bd d653 2bbd 52e1 6d3c
00000050: eefd 7b3c 77f5 c33c 7913 d63c 2cf7 05bb
00000060: e6a9 b0bc 7e27 d63b 22bd 1c3d fb9f 173d
00000070: 3742 16bd 5d43 903b 3873 933c 8534 ba3c
00000080: 617f 693c 5445 babb 6ff7 da3b 9b1a 263d
00000090: 17b9 aabc 213f 043d e3c8 f6bc b70b c1bc
000000a0: ca45 fcbc f5d0 0dbd a57d acbb ce5a 8b3c
000000b0: 6d7a d7bc b7ce fdbb 25ba 82bc a56c 283c
000000c0: b768 d83c 3df5 953b 6549 07bd cd08 03bd
000000d0: 60b4 38bc 2407 08bd c235 663c 8627 2f3d
000000e0: 6a51 c7bc 2e42 28bd 56ab 1bbd 117d 0cbc
000000f0: 327b 0f3d 4ae3 903c 9a71 8f3c 6309 07bd
00000100: 6882 c3bc 59d9 60bb a6c6 78bc 2c82 03bd
00000110: e979 ca3c 508b 33bd 0c94 2c3d 9c4d 263d
00000120: f64e d9bc 7809 f9bc bb3b 5c3c 787a de3c
00000130: de20 80bc 80e4 703b f2d3 f0bc 4d40 ebbb
00000140: 0cbb f23c efec 05bd fcc6 203d ae6e 113d
00000150: 776e a5bb c67e b63c 9a43 e5bb f0ce 003d
00000160: b0f8 c9bc ce92 ecbc 9f91 103d 619b a83c
00000170: 2bac 72bc 6850 2f3d d6a2 67bc c737 1e3d
00000180: 4cb2 283d 537c af3a 1b18 163d 5f1d cfbc
00000190: a917 04bd a789 863c 9fc0 8c3c abbf 273d
000001a0: 4167 debc 0f62 ffbb b1f8 c03c 06bc 773c
000001b0: 620b 203d 2ccc 6fbc 0c7f c9bc 237e 203d
000001c0: d066 a6bc 22b3 9b3c 2929 ddb9 7c51 98bc
000001d0: 03b6 293d 1eb7 e93c d11d 06bc 27b0 183d
000001e0: a806 2cbd 01ef 0a3d f94a cf38 e83d 33bd
000001f0: 22e0 2b3d 9f1a 313d bbd5 9d3b e257 04bd
00000200: e917 85bc ff58 e1bc a720 a13c c440 2a3d
00000210: 989d 91b9 3f0a 8f3c b205 413c a3bf 16bd
00000220: b8f0 1b3d c1f6 083d f132 003c fa61 913c
00000230: 74dc 953c 4e53 7cbc 110f dabb b83a 293b
00000240: 03f4 01bd da38 d03c 6718 0cbd f499 e73c
00000250: 7b71 0f3d 580f 1bbd d09d 5e3b 2dc9 443c
00000260: b373 37bc b08e a9bc 50a3 293d cfaa 09bd
00000270: e036 8abb 24ce 1ebd aeb3 c9bc dd87 153d
00000280: 9991 95bc 325e dd3c 301f f5bc 6f36 88bb
00000290: 4bef c5bb 3640 b1bc d8cd 2dbd 7d64 e9bc
000002a0: 1564 673b 2a3d 2d3b dd70 1f3d 631b 303d
000002b0: f8b5 a0bb 7dbb 26bd 0960 fe3c 77af 0dbd
000002c0: 9c37 ba3c a881 c33c dcb3 13bd 51e8 a53c
000002d0: 888b 59bb 97f6 9cbb 5785 2e3d 36cc 2dba
000002e0: aef2 603c 2f78 123d d2c1 7ebc 1267 063c
000002f0: c4fc 27bc f680 9ebc 093c 023c 641b 273d
00000300: c96b f53c 080e b8bc dd05 233d f9fc d9bc
00000310: b35b 04bc 563f 2a3d e257 2ebd 9ac1 76bc
00000320: 8a20 773c bd35 ebbc 4a67 af3c 74bc b8bc
00000330: dfd4 81bc 5f35 e9bc 700b 013c f270 353b
00000340: 75ef 8f3c c743 39bc ff45 03bd 87c7 2ebd
00000350: 3c05 64bc bd11 2a3c c6d5 02bd 9dff 873c
00000360: 6006 44bc 75ea db3c 8dcf 0f3d 7d13 bcbc
00000370: 5a40 24bd d2b7 cebc cc4e 263d b2c8 18bd
00000380: 11cc 8fbc 9564 8e3c 1b14 f83b 8c7a d3bc
00000390: b666 383b 354d 4fbc 73d4 e9bc 7df7 973b
000003a0: 28db 28bd 0e9a 0abd d9a8 013d 5566 f43b
000003b0: a30c 18bc fc4a 19bc 1c3e 1d3d 9c74 9ebc
000003c0: ddfd bfba 4405 f1bc a03d 14bd a341 0fbc
000003d0: 4923 a6bc 48fd 163c 2962 683c c1ee 92bc
000003e0: ca1d 11bd 36ab 0b3c b6af 953a cc7d 01bd
000003f0: aefe cc3b 3791 1d3d 16fa f23c 6042 1cbd

fc2.bias f4 [256]
-0.026623104 0.0019323918 -0.023355106 0.016639989 0.00831313 -0.030068262 -0.016680615 0.025219848
0.010265095 0.0328178 0.021535818 0.039475393 -0.03392021 0.04127366 0.0015352591 -0.0354064
0.02050831 0.0029578386 -0.03726243 0.02396398 -0.020692471 -0.010670507 -0.033927105 -0.012631227
-0.01330957 0.030410605 -0.02660453 -0.02728648 -0.006594992 -0.019200863 -0.023916477 0.011192648
0.02298092 0.008162411 -0.037417296 -0.009077528 -0.03264321 -0.030945841 0.029098842 0.0144624915
0.042116996 0.028653482 0.021979183 0.0077529955 0.024558576 -0.029392416 -0.022224924 -0.011093698
-0.037414107 0.0087129455 0.024472205 -0.033409055 0.030862559 -0.0153496135 0.0014495348 -0.03296464
0.030025845 -0.0047648363 0.019880341 0.028000006 0.0013379671 -0.007503227 -0.008346337 0.0070941267
-0.026651759 -0.0012659851 0.014925901 0.03712208 -0.03262214 0.012410377 0.0300895 -0.031921837
-0.00062192185 0.030678555 -0.019206343 -0.030489769 0.010111249 0.029415093 -0.008208777 0.0125809135
0.042538133 0.033441734 -0.0011773349 0.022076655 -0.039658822 0.009879893 -0.024573525 -0.034762356
-0.0018239708 0.04191627 0.040617976 0.017293472 0.02158201 0.04294983 -0.006314134 0.01775982
0.04041202 0.009192937 0.035066742 0.012531281 -0.030659487 0.0051324554 -0.018060049 0.011663054
0.0015548714 0.015378061 -0.021644633 -0.0040443856 -0.033147004 -0.013272231 -0.04094963 -0.020973578
0.027142366 -0.008457648 0.024618043 0.034971315 0.016913824 -0.0194004 -0.030051377 -0.007132012
-0.01621603 0.023099396 0.018457655 0.017189555 0.003732637 0.030189686 0.007244426 -0.017763354
0.02285924 -0.04532924 0.02138836 -0.027346335 -0.022546668 -0.037262473 0.0324039 -0.042378955
0.01975508 0.042494547 0.0437532 -0.012458067 0.036973808 -0.037449844 -0.002955224 0.006450187
0.03754986 0.028265446 0.010247051 0.009273728 0.016203415 0.026234243 0.016125333 0.011003304
0.027403053 -0.031032117 -0.043526206 -0.0030845103 0.014862818 -0.0010841743 0.04552022 -0.008870467
0.01572641 0.0066565233 0.024060981 -0.027151065 0.014095787 0.0367374 0.019208448 -0.010338862
-0.010110715 -0.040099695 0.013681 -0.021448229 -0.044154685 0.02697716 0.007490128 0.039357804
0.021275554 0.009592625 -0.011868259 -0.036221564 0.027954686 0.023435814 -0.0037051288 0.036773752
-0.040015653 -0.029998882 0.044424005 0.03970268 -0.0003936545 0.019110298 0.016785655 -0.017654324
-0.027026556 0.009542199 -0.027380373 -0.021482453 0.021977397 -0.014874985 0.024956908 0.018257663
-0.004302762 -0.006814946 0.024109453 0.04128926 0.045795128 -0.042621646 -0.00064924115 0.03849066
0.010145922 0.0047868793 -0.024909902 -0.024488235 -0.00083899335 0.035893418 0.004996449 0.018681359
-0.019140534 -0.041596934 0.031419206 -0.009950426 -0.02717671 -0.012263893 -0.031003973 0.022554772
-0.040062703 0.037515886 -0.039793514 0.013434142 -0.00081581104 0.0267728 0.014718141 -0.043923717
-0.0037833916 0.02880766 -0.023769394 -0.029899184 0.009131459 0.011690841 0.031801946 0.005027079
-0.041804712 -0.018920364 -0.014945097 -0.037673175 -0.02371947 0.016509403 -0.014165565 0.0026766325
-0.022663778 -0.020502578 0.002770217 0.03490133 -0.01927025 -0.01865527 0.003197352 0.022508278
00000000: b218 dabc 4f48 fd3a 3553 bfbc 9650 883c
00000010: cb33 083c b751 f6bc c9a5 88bc db99 ce3c
00000020: ee2e 283c f56b 063d e26b b03c f3b0 213d
00000030: ebef 0abd 920e 293d bf3a c93a 4d06 11bd
00000040: 0b01 a83c 4cd8 413b 7da0 18bd 1c50 c43c
00000050: 4283 a9bc 5ad3 2ebc 26f7 0abd 35f3 4ebc
00000060: 6210 5abc a91f f93c bef1 d9bc e587 dfbc
00000070: cd1a d8bb 214b 9dbc 7dec c3bc 5e61 373c
00000080: 7b42 bc3c a2bb 053c e142 19bd e9b9 14bc
00000090: e3b4 05bd 2282 fdbc b260 ee3c 16f4 6c3c
000000a0: df82 2c3d b5ba ea3c b00d b43c d70c fe3b
000000b0: 112f c93c 5dc8 f0bc 0b11 b6bc 58c2 35bc
000000c0: 893f 19bd bec0 0e3c ef79 c83c efd7 08bd
000000d0: 7ad3 fc3c f27c 7bbc 51fe bd3a ee05 07bd
000000e0: c3f8 f53c 5822 9cbb 19dc a23c 4560 e53c
000000f0: ba5e af3a a1dd f5bb 13bf 08bc d975 e83b
00000100: ca54 dabc 69ef a5ba c48b 743c 520d 183d
00000110: cb9e 05bd e554 4b3c 417e f63c 79c0 02bd
00000120: 7808 23ba 9851 fb3c 9f56 9dbc aec5 f9bc
00000130: a7a9 253c ecf7 f03c 1b7e 06bc 2d20 4e3c
00000140: 773c 2e3d 33fa 083d ce50 9aba 1ada b43c
00000150: 4a71 22bd 46df 213c 6b4e c9bc f962 0ebd
00000160: 4e12 efba 65b0 2b3d 095f 263d 0aab 8d3c
00000170: c1cc b03c 29ec 2f3d cce6 cebb 0b7d 913c
00000180: 1387 253d f99d 163c 25a2 0f3d 0150 4d3c
00000190: 9b29 fbbc 282e a83b abf2 93bc 6516 3f3c
000001a0: d4cc cb3a 43f4 7b3c 1650 b1bc c486 84bb
000001b0: 27c5 07bd c673 59bc cdba 27bd c8d0 abbc
000001c0: ab59 de3c f291 0abc c7ab c93c 153e 0f3d
000001d0: dc8e 8a3c 96ed 9ebc 4e2e f6bc a7b3 e9bb
000001e0: 7bd7 84bc f23a bd3c 8234 973c 1cd1 8c3c
000001f0: 429f 743b 5c50 f73c a662 ed3b 7484 91bc
00000200: 4d43 bb3c 27ab 39bd a436 af3c 6c05 e0bc
00000210: cab3 b8bc 89a0 18bd f4b9 043d 8e95 2dbd
00000220: 68d5 a13c c30e 2e3d 8e36 333d ec1c 4cbc
00000230: d971 173d 0265 19bd 6eac 41bb 175c d33b
00000240: e2cd 193d f08c e73c 3fe3 273c d6f0 173c
00000250: 06bd 843c 32e9 d63c 4619 843c 3447 343c
00000260: 5e7c e03c 1137 febc 8948 32bd 7f25 4abb
00000270: 2d83 733c da1a 8eba 6973 3a3d 6f55 11bc
00000280: acd4 803c f71e da3b 891b c53c e96b debc
00000290: 04f2 663c f579 163d 095b 9d3c 5564 29bc
000002a0: 6aa7 25bc 943f 24bd 4626 603c 32b4 afbc
000002b0: 8bdb 34bd 34ff dc3c bf6f f53b a635 213d
000002c0: 124a ae3c 632a 1d3c 1673 42bc 105d 14bd
000002d0: 3a01 e53c 77fc bf3c bfd1 72bb 13a0 163d
000002e0: 74e7 23bd 37c0 f5bc f2f5 353d 479f 223d
000002f0: 6a63 ceb9 338d 9c3c 1282 893c cd9f 90bc
00000300: cc66 ddbc e256 1c3c ce4c e0bc f8fb afbc
00000310: f109 b43c 36b6 73bc 6e72 cc3c 1891 953c
00000320: 2ffe 8cbb e94f dfbb 3081 c53c ed1e 293d
00000330: ac93 3b3d 0994 2ebd d631 2aba 62a8 1d3d
00000340: 153b 263c 41db 9c3b da0f ccbc 8d9b c8bc
00000350: e4ef 5bba fa04 133d 41b9 a33b a609 993c
00000360: 9ccc 9cbc 8c61 2abd 6db1 003d 1d07 23bc
00000370: b1a1 debc 7fee 48bc 0bfc fdbc c9c4 b83c
00000380: ca18 24bd 42aa 193d 86fe 22bd e01a 5c3c
00000390: 27dc 55ba a252 db3c 5c24 713c 5be9 33bd
000003a0: c7f2 77bb 0bfe eb3c 08b8 c2bc 22ef f4bc
000003b0: 1d9c 153c f18a 3f3c c242 023d 32ba a43b
000003c0: 6b3b 2bbd e1fe 9abc 48dc 74bc 304f 1abd
000003d0: 554f c2bc ba3e 873c b016 68bc 716a 2f3b
000003e0: 63a9 b9bc 06f5 a7bc 878c 353b b2f4 0e3d
000003f0: a5dc 9dbc f0d2 98bc aa8a 513b 4863 b83c

fc3.weight f4 [128, 256]
0.05298416 -0.044841293 0.0117020225 0.061693434 -0.036734972 -0.040400513 0.0023887274 0.016947836
0.010801383 -0.045787267 -0.016680924 0.053696018 -0.0022024012 -0.056662004 0.042420387 0.037139177
-0.06290313 -0.047996704 -0.025070988 0.032576118 -0.0130804805 -0.033616412 0.05270104 -0.06117243
0.023705589 0.03482444 -0.005754233 -0.025020497 0.0068536196 -0.026434807 -0.013181048 0.023446169
-0.007334201 -0.0480417 0.03348128 0.055443317 0.008730791 -0.027820267 0.04233348 0.027633836
0.003193867 0.022505261 0.038319547 -0.056204665 0.0107939765 -0.04952788 0.018965868 -0.001077141
-0.01642715 -0.05436983 -0.0590712 0.038293183 -0.023919089 -0.007667716 0.01813346 -0.05005876
0.024138536 -0.010822191 0.04448602 -0.03044344 0.049213447 -0.019564375 -0.003344275 -0.045366652
-0.03789518 0.018152487 0.03723231 -0.036227163 -0.05707158 0.039881088 -0.025239212 0.05782128
-0.024869567 0.03023978 0.0243715 -0.01768979 -0.054405477 -0.018752614 0.029530853 -0.026071897
0.042562682 -0.057514198 -0.046246707 -0.008425793 0.010764997 0.0060724434 0.02234235 -0.03455339
-0.017606977 -0.026473872 0.0072497693 -0.022266166 -0.036826894 -0.016835263 -0.017587045 -0.0005709109
-0.0400333 -0.028875908 -0.020901134 -0.006990424 -0.029608032 0.02460055 0.035558365 0.0014270969
0.039169963 0.0401596 -0.016566582 0.00036231632 0.04746802 -0.020624746 0.05836975 0.055033647
-0.018211622 -0.0031497793 0.060951006 -0.05685513 -0.052540682 0.03860578 -0.034523267 0.024538869
0.047315396 -0.019444313 0.014987329 0.03226897 0.047345422 -0.0126139885 -0.033801 -0.02374897
0.01612033 0.028969012 0.060757875 -0.041149814 -0.0057660965 -0.0067890254 0.03954985 -0.021878503
0.06275662 0.038651656 -0.024668131 0.026840914 -0.018386314 -0.013704913 0.014568534 -0.014673125
-0.05701764 0.019867884 0.052753083 -0.020450912 0.054598585 -0.019657645 0.024759203 0.039003436
0.009235997 -0.01289326 0.056750454 0.03659547 -0.059508212 -0.0068650707 -0.024994634 0.04029263
0.060067322 -0.0038894883 0.059231244 0.05906312 -0.054275267 0.051042486 0.056132562 -0.011549504
0.052775137 -0.048350465 0.041568957 0.05446137 -0.060461964 -0.0016405331 -0.014954828 -0.014113007
0.037120953 -0.0007113155 -0.05011209 -0.05449253 -0.01750086 -0.049540237 0.0009012497 -0.025452396
0.03216592 -0.019412339 -0.021651406 -0.057676464 -0.002892496 0.004516325 -0.052374296 -0.06207328
-9.184861e-05 -0.011195245 0.055468664 0.0059328214 0.013967546 -0.02194598 -0.016753394 -0.04906824
0.06475737 -0.0027704977 0.0355794 0.05059821 -0.037641633 0.02145172 -0.051983632 0.033656154
-0.03338134 0.020675236 0.06188136 -0.06474885 -0.054125354 -0.059598945 -0.055481736 -0.028395947
-0.025663186 -0.008213818 0.028215386 -0.05081043 -0.045882307 -0.03186824 0.05689737 0.012619956
0.05205156 0.03364373 -0.010141888 -0.043040834 0.053852733 -0.06274031 0.017152343 0.052367605
0.023930786 -0.038041808 0.007898977 0.057359822 0.058818202 -0.058630865 -0.056311224 0.012928097
0.05100697 0.022878768 0.033738907 0.023777274 0.05151883 -0.0020335873 0.00041958972 -0.052750856
0.0011796249 -0.019883681 -0.012575724 -0.020142527 0.025769914 0.013069226 -0.0018506215 -0.045001242
00000000: eb05 593d 81ab 37bd d7b9 3f3c 41b2 7c3d
00000010: 6977 16bd 027b 25bd 328c 1c3b 30d6 8a3c
00000020: 49f8 303c 6e8b 3bbd 6fa6 88bc 5bf0 5b3d
00000030: 2956 10bb 6b16 68bd 00c1 2d3d 401f 183d
00000040: 5bd3 80bd 3198 44bd ac61 cdbc 896e 053d
00000050: 834f 56bc 5db1 09bd 0cdd 573d f18f 7abd
00000060: 3932 c23c 12a4 0e3d 018e bcbb c9f7 ccbc
00000070: 5494 e03b cf8d d8bc 53f5 57bc 2e12 c03c
00000080: bd53 f0bb 60c7 44bd ab23 093d 8818 633d
00000090: 970b 0f3c 54e7 e3bc df65 2d3d 5b60 e23c
000000a0: 3250 513b f45c b83c f5f4 1c3d dd36 66bd
000000b0: 38d9 303c bfdd 4abd 4f5e 9b3c db2e 8dba
000000c0: 3b92 86bc e6b2 5ebd a5f4 71bd 50d9 1c3d
000000d0: f7f1 c3bc 7741 fbbb 9f8c 943c 6a0a 4dbd
000000e0: 2ebe c53c 8f4f 31bc f936 363d 8564 f9bc
000000f0: 0a94 493d 7845 a0bc a02b 5bbb 62d2 39bd
00000100: fa37 1bbd 86b4 943c e880 183d ef62 14bd
00000110: e4c3 69bd 5a5a 233d 77c2 cebc 02d6 6c3d
00000120: 43bb cbbc 6ab9 f73c bda6 c73c 2eea 90bc
00000130: 47d8 5ebd 159f 99bc b0ea f13c bb94 d5bc
00000140: 3556 2e3d 0294 6bbd 306d 3dbd 560c 0abc
00000150: ac5f 303c 59fb c63b 4e07 b73c db87 0dbd
00000160: 823c 90bc bcdf d8bc 798f ed3b 8967 b6bc
00000170: ccd7 16bd 1bea 89bc b512 90bc 2fa9 15ba
00000180: f5f9 23bd 2b8d ecbc db38 abbc ed0f e5bb
00000190: 8b8c f2bc 1887 c93c a6a5 113d 6d0d bb3a
000001a0: af70 203d 657e 243d a4b6 87bc 46f5 bd39
000001b0: d46d 423d 3af5 a8bc 1e15 6f3d f66a 613d
000001c0: 8a30 95bc 876c 4ebb c3a7 793d ede0 68bd
000001d0: e634 57bd 1821 1e3d 4568 0dbd bd05 c93c
000001e0: cacd 413d ae49 9fbc 6a8d 753c 782c 043d
000001f0: 46ed 413d e7aa 4ebc eb72 0abd 338d c2bc
00000200: c80e 843c 6c50 ed3c 40dd 783d b58c 28bd
00000210: 86f1 bcbb 7976 debb 06ff 213d 8c3a b3bc
00000220: 8b86 803d 3351 1e3d d214 cabc 7ae1 db3c
00000230: e59e 96bc 928a 60bc dcb0 6e3c 8c67 70bc
00000240: 548b 69bd f9c1 a23c 9e13 583d ac88 a7bc
00000250: c4a2 5f3d 1209 a1bc d0d3 ca3c 11c2 1f3d
00000260: 9452 173c 413e 53bc 2a73 683d 22e5 153d
00000270: e2be 73bd 63f4 e0bb 8cc1 ccbc e309 253d
00000280: 2709 763d c9e6 7ebb 769c 723d 2cec 713d
00000290: be4f 5ebd ed11 513d 42eb 653d 213a 3dbc
000002a0: be2a 583d 230b 46bd 3644 2a3d e312 5f3d
000002b0: f7a6 77bd 2807 d7ba 1805 75bc 3e3a 67bc
000002c0: 240c 183d 9377 3aba 5642 4dbd 8f33 5fbd
000002d0: f75d 8fbc b4ea 4abd d841 6c3a 8b81 d0bc
000002e0: 69c0 033d a006 9fbc 4a5e b1bc 283e 6cbd
000002f0: 0890 3dbb aefd 933b 6e86 56bd 8d40 7ebd
00000300: d99e c0b8 436c 37bc 1c33 633d 1d68 c23b
00000310: 22d8 643c 0ec8 b3bc 6a3e 89bc c7fb 48bd
00000320: 839f 843d 3d91 35bb b4bb 113d 1240 4f3d
00000330: 1d2e 1abd 84bb af3c caec 54bd 09db 093d
00000340: dfba 08bd 1d5f a93c 4f77 7d3d 0c9b 84bd
00000350: 8cb2 5dbd 061e 74bd d140 63bd 9e9e e8bc
00000360: 9a3b d2bc 4093 06bc f423 e73c 991e 50bd
00000370: 16ef 3bbd 4688 02bd 370d 693d efc3 4e3c
00000380: 0434 553d 02ce 093d 292a 26bc 964b 30bd
00000390: af94 5c3d fe7d 80bd 1283 8c3c 6a7f 563d
000003a0: 7f0a c43c bad1 1bbd b66a 013c 22f2 6a3d
000003b0: 5beb 703d eb26 70bd 99a6 66bd 5ed0 533c
000003c0: afec 503d 416c bb3c cf31 0a3d 8fc8 c23c
000003d0: 6905 533d ef45 05bb 61fc db39 4811 58bd
000003e0: a59d 9a3a 1ae3 a2bc 690a 4ebc f101 a5bc
000003f0: 6d1b d33c 4f20 563c 8e90 f2ba 3953 38bd

fc3.bias f4 [128]
0.031783234 0.022572039 0.040002704 0.05680313 -0.009296161 -0.020896954 0.0496733 0.035380155
0.02666202 -0.044518717 0.042992216 -0.02701964 -0.011375162 -0.008447764 -0.03358607 0.025825474
-0.017379912 -0.016179996 0.015015734 -0.02291847 -0.02275517 -0.01715272 0.05210293 0.017082868
-0.014217511 -0.047076616 -0.017860599 0.01967686 -0.005155468 0.038693227 0.030414874 0.019063154
-0.002335218 -0.049344327 -0.0013456368 -0.02914009 -0.014824894 -0.010278318 0.061351128 -0.048841324
-0.035407353 -0.062605366 0.027534924 0.0100923795 -0.034291912 0.022951711 -0.051962875 -0.043913174
0.019253934 -0.029969497 -0.06276921 0.059165306 0.006351926 0.059596315 0.007387038 -0.034493677
0.024577186 -0.0581366 -0.0017782816 -0.021962976 -0.05925033 0.027717229 0.036748935 -0.043292686
-0.04386887 -0.04698763 -0.007841344 -0.0043502874 -0.05115279 -0.0012588958 -0.004371623 -0.0461979
-0.013554894 0.05608499 -0.043774165 0.01776202 -0.030688599 -0.04058005 -0.012551542 -0.023841392
0.04090598 -0.056935165 0.043977253 -0.039846264 0.0132766925 0.04848336 -0.025120653 -0.04387848
0.042784095 -0.003926456 -0.035495725 -0.041920353 -0.028102426 -0.02512928 0.046121087 0.0009995791
-0.030001087 0.0037249287 -0.058275145 -0.03354303 0.012672815 0.030298501 0.023752635 0.011484011
-0.0017342148 -0.038830906 0.040080514 0.0009848081 0.04770829 -0.040110648 -0.039821763 -0.021245878
-0.061332744 -0.027179442 0.004395705 -0.023488414 -0.04328877 0.008244122 -0.059611525 0.015112853
-0.03858041 0.05959802 -0.012414457 0.032416765 -0.019604377 0.010806068 0.0119295865 0.028075531
00000000: 232f 023d ffe8 b83c e0d9 233d 66aa 683d
00000010: ed4e 18bc 1730 abbc 3b76 4b3d c8ea 103d
00000020: 4f6a da3c 4259 36bd 9b18 303d 4b58 ddbc
00000030: e35e 3abc 7e68 0abc 8c91 09bd f28f d33c
00000040: 5160 8ebc e98b 84bc 8e04 763c 84bf bbbc
00000050: 0d69 babc dc83 8cbc e269 553d 5ff1 8b3c
00000060: 90f0 68bc 69d3 40bd 6450 92bc 5e31 a13c
00000070: 33ef a8bb ca7c 1e3d 9d28 f93c 552a 9c3c
00000080: 750a 19bb 471d 4abd 1460 b0ba 33b7 eebc
00000090: 1de4 72bc 6466 28bc 524b 7b3d d70d 48bd
000000a0: 4d07 11bd 3e37 80bd ec90 e13c 825a 253c
000000b0: ad75 0cbd 3a05 bc3c 06d7 54bd 4dde 33bd
000000c0: 6dba 9d3c 9782 f5bc 258d 80bd 5257 723d
000000d0: d123 d03b 441b 743d f70e f23b 3e49 0dbd
000000e0: 1856 c93c a520 6ebd 3b15 e9ba b3eb b3bc
000000f0: 79b0 72bd 3e0f e33c 0d86 163d ac53 31bd
00000100: d8af 33bd 1a76 40bd fb78 00bc db8c 8ebb
00000110: 9785 51bd 8901 a5ba d53f 8fbb 023a 3dbd
00000120: 5915 5ebc 60b9 653d 8a4c 33bd a881 913c
00000130: a866 fbbc 4437 26bd fca4 4dbc 064f c3bc
00000140: 078d 273d d934 69bd 7e21 343d d635 23bd
00000150: 7c86 593c 7d96 463d d4c9 cdbc ecb9 33bd
00000160: 603e 2f3d 80a9 80bb f763 11bd adb4 2bbd
00000170: 0f37 e6bc ebdb cdbc 77e9 3c3d 4f04 833a
00000180: d7c4 f5bc ef1d 743b ebb1 6ebd 6b64 09bd
00000190: a3a1 4f3c 9034 f83c e394 c23c 6f27 3c3c
000001a0: 984e e3ba 280d 1fbd 772b 243d ad14 813a
000001b0: c569 433d 104b 24bd 251c 23bd d60b aebc
000001c0: 0b38 7bbd 6ca7 debc d909 903b c66a c0bc
000001d0: 914f 31bd 5b12 073c 372b 74bd e69b 773c
000001e0: 7e06 1ebd 0e1d 743d 0266 4bbc 71c7 043d
000001f0: 5c99 a0bc ef0b 313c 5074 433c a8fe e53c

fc4.weight f4 [1, 128]
0.08466728 -0.067011565 0.06819918 0.04484486 -0.07927544 -0.011470785 0.06924997 -0.0796778
-0.019488776 -0.06502144 -0.05563792 0.014070295 -0.0003022891 0.02502645 0.015315848 -0.02800873
0.056666143 0.030872475 -0.00418237 0.04440486 0.03417172 0.071581885 -0.029694842 0.061526246
0.11579392 -0.07631484 0.05061102 -0.0788033 -0.04640015 0.013796434 0.06055183 -0.006799808
-0.07102001 -0.05857546 0.07618158 0.019038582 0.042481992 0.041360646 0.009490279 0.030107543
-0.044573553 -0.07997858 0.03184955 -0.02140638 -0.026295464 0.07846025 0.050078772 -0.034313254
-0.03366983 -0.0050033163 0.0029054557 0.1196038 -0.032327004 -0.088331886 0.07457361 -0.016228685
-0.07924072 -0.00857877 -0.06300187 -0.057372667 0.055696256 0.061051033 -0.0058781686 0.05106985
0.04006886 -0.0535758 0.02841208 -0.0029080005 -0.057032086 0.040633805 0.008950489 0.05433848
-0.045755237 -0.0057222433 -0.06953104 -0.07492898 -0.07361393 0.07188703 -0.08023655 -0.061616722
0.026571631 0.08588094 0.047458757 -0.015179144 -0.070191994 0.08557895 -0.06801385 0.08086987
0.027317 -0.003016959 -0.015802944 0.00035272192 0.03326037 0.077571705 0.019241227 -0.01749864
0.0748034 0.08735127 -0.011369409 -0.07940586 -0.032454997 -0.077246316 0.09086133 0.056563057
0.039408185 0.0058624186 0.065199725 0.03673553 -0.04323977 -0.07250481 -0.05190994 -0.038989328
-0.0014488976 -0.011977435 0.10749703 0.04373151 -0.03229648 -0.044917956 0.019083772 -0.025368864
-0.008839689 0.006823779 -0.08051297 0.053840023 0.055127442 -0.04203086 0.060151093 0.008942247
00000000: 0a66 ad3d 5c3d 89bd 03ac 8b3d 3eaf 373d
00000010: 295b a2bd f6ef 3bbc eed2 8d3d 1d2e a3bd
00000020: eda6 9fbc f629 85bd 96e4 63bd 1887 663c
00000030: 8e7c 9eb9 4504 cd3c 53ef 7a3c 9072 e5bc
00000040: c21a 683d 46e8 fc3c 430c 89bb dfe1 353d
00000050: a5f7 0b3d 8699 923d 9942 f3bc f202 7c3d
00000060: 5d25 ed3d f44a 9cbd 804d 4f3d a063 a1bd
00000070: 150e 3ebd 700a 623c 3205 783d ecd0 debb
00000080: f072 91bd d2ec 6fbd 1705 9c3d cdf6 9b3c
00000090: 9901 2e3d c869 293d 1d7d 1b3c 18a4 f63c
000000a0: c292 36bd cfcb a3bd ac74 023d 6f5c afbc
000000b0: 9669 d7bc c4af a03d 661f 4d3d 0e8c 0cbd
000000c0: 60e9 09bd dcf2 a3bb 7569 3e3b d6f2 f43d
000000d0: 5269 04bd 59e7 b4bd 0dba 983d 05f2 84bc
000000e0: f548 a2bd f88d 0cbc 2007 81bd 9aff 6abd
000000f0: c221 643d a610 7a3d a79d c0bb 9e2e 513d
00000100: 3f1f 243d 4c72 5bbd 73c0 e83c 2794 3ebb
00000110: 7a9a 69bd a26f 263d 12a5 123c 0792 5e3d
00000120: d869 3bbd a881 bbbb 4a66 8ebd 5d74 99bd
00000130: e6c2 96bd 8239 933d 0f53 a4bd d161 7cbd
00000140: c0ac d93c 59e2 af3d 1d64 423d f2b1 78bc
00000150: d2c0 8fbd 0444 af3d d84a 8bbd 1a9f a53d
00000160: e7c7 df3c 2cb8 45bb 2d75 81bc 89ed b839
00000170: 073c 083d eadd 9e3d c79f 9d3c 4f59 8fbc
00000180: 8632 993d 39e5 b23d c246 3abc 8a9f a2bd
00000190: 88ef 04bd 5133 9ebd 8115 ba3d aaae 673d
000001a0: 7a6a 213d 8819 c03b 6f87 853d ff77 163d
000001b0: 2f1c 31bd 677d 94bd 849f 54bd 46b3 1fbd
000001c0: f0e8 bdba 013d 44bc 6727 dc3d d01f 333d
000001d0: 5049 04bd e4fb 37bd 9255 9c3c 5dd2 cfbc
000001e0: 58d4 10bc 029a df3b fce3 a4bd 5b87 5c3d
000001f0: 50cd 613d 8d28 2cbd fe60 763d 8182 123c
